workstation/Models/Teachers/Unet/depth2_in3_start4_batch10_epochs1_lr0.001.safetensors (safetensors, 38236 bytes, 66 tensors)

bottleneck.bn1.bias f4 [16]
0	0xba6a388a	-0.00089348166
1	0x3b2c388c	0.0026278822
2	0x3a363453	0.0006950546
3	0x3b28dfd3	0.0025768175
4	0x3b447df5	0.0029982303
5	0x3be2d1dd	0.0069219903
6	0xbb39abe5	-0.0028331217
7	0x3be72e3a	0.007055071
8	0xbb097b71	-0.0020978118
9	0xba983a32	-0.0011614023
10	0x3ad3e661	0.0016166681
11	0xb9529a6e	-0.0002008469
12	0xbac3de53	-0.0014943577
13	0x3bc8054f	0.0061041485
14	0xbb6148dd	-0.0034375705
15	0x3b2c2516	0.0026267222

bottleneck.bn1.running_mean f4 [16]
0	0x3eae7114	0.34070647
1	0xbe3e6813	-0.18594389
2	0xbeac49d2	-0.3365007
3	0x3e22ee03	0.15911107
4	0x3e48a9c2	0.19596007
5	0xbceda47a	-0.029009093
6	0xbdd90528	-0.105966866
7	0x3e41c7bd	0.1892385
8	0x3e553957	0.20822655
9	0xbe1d4de6	-0.15361747
10	0xbd6ed907	-0.058312442
11	0x3e1a2365	0.15052564
12	0x3d06b556	0.03288778
13	0x3df07c8f	0.11742508
14	0x3e45b27c	0.19306368
15	0xbdcc5346	-0.09976821

bottleneck.bn1.running_var f4 [16]
0	0x3edd0715	0.43169466
1	0x3ecf3adf	0.40474603
2	0x3efdae03	0.49546823
3	0x3ed4312d	0.41443768
4	0x3ecee4d1	0.40408948
5	0x3ecbbf88	0.39794564
6	0x3ef3b2ff	0.475975
7	0x3ee121f1	0.43971208
8	0x3ee2d650	0.44304132
9	0x3ef0b096	0.47009724
10	0x3ed157a2	0.4088717
11	0x3edf869c	0.43657386
12	0x3ed64d0c	0.41855657
13	0x3efae56c	0.4900316
14	0x3eef7e6c	0.4677614
15	0x3efdbc25	0.49557605

bottleneck.bn1.weight f4 [16]
0	0x3f7f398b	0.9969718
1	0x3f809f39	1.0048591
2	0x3f7fcf9a	0.9992615
3	0x3f801ea6	1.0009353
4	0x3f7f2948	0.99672365
5	0x3f81001d	1.007816
6	0x3f7dad5a	0.9909264
7	0x3f80439e	1.0020635
8	0x3f800d7f	1.0004119
9	0x3f80548f	1.0025805
10	0x3f7f7384	0.9978564
11	0x3f7fa9f1	0.99868685
12	0x3f7f0092	0.99610245
13	0x3f809fcb	1.0048765
14	0x3f7eb728	0.99498224
15	0x3f804d4c	1.0023589

bottleneck.bn2.bias f4 [16]
0	0xbb3f2a38	-0.0029169451
1	0xbb45eff8	-0.0030202847
2	0x3c1e473b	0.009660537
3	0x3bebcfa7	0.007196385
4	0x3bd0ee23	0.0063760444
5	0x3b2a28b3	0.00259642
6	0x3b9b6544	0.0047422964
7	0x3bdfa8e8	0.006825555
8	0xbaaabe5f	-0.0013026706
9	0xbbc5b91e	-0.0060340306
10	0xbb99668a	-0.004681413
11	0x3b54f2bc	0.0032493314
12	0x3b2941e8	0.0025826637
13	0x3ae1fc8a	0.00172414
14	0x3bb46847	0.005505595
15	0xbb4f9718	-0.0031675752

bottleneck.bn2.running_mean f4 [16]
0	0xbc1bb2b8	-0.009503059
1	0x3cf7d6ce	0.030253794
2	0xbe7fd091	-0.24981906
3	0xbe055303	-0.13019948
4	0x3d416bd4	0.047221974
5	0xbe49556f	-0.19661497
6	0xbd30d426	-0.04317107
7	0xbdd0ccbb	-0.10195299
8	0x3d838630	0.064220786
9	0xbd7208f4	-0.05909057
10	0x3cf808f2	0.030277703
11	0xbe062f3f	-0.1310396
12	0x3dd7b290	0.10532105
13	0x3b7ae5bd	0.0038283907
14	0x39dbaf24	0.00041901425
15	0xbd42e279	-0.047579262

bottleneck.bn2.running_var f4 [16]
0	0x3ebfd1b9	0.37464693
1	0x3ec7b9a0	0.39008808
2	0x3ed73139	0.4202974
3	0x3ed6fb22	0.41988474
4	0x3ec7950d	0.38980904
5	0x3ec4c95a	0.3843487
6	0x3ec7f63b	0.39055046
7	0x3ebeae75	0.37242475
8	0x3ed8bf53	0.4233347
9	0x3ec57265	0.3856384
10	0x3ec8a418	0.39187694
11	0x3edb5afa	0.42842847
12	0x3ecc6b9f	0.39925858
13	0x3ec4f301	0.38466647
14	0x3ec953f1	0.39321855
15	0x3ec359c4	0.38154423

bottleneck.bn2.weight f4 [16]
0	0x3f802489	1.001115
1	0x3f8011b8	1.0005407
2	0x3f814f45	1.0102316
3	0x3f807a80	1.0037384
4	0x3f80cec1	1.0063096
5	0x3f7ff332	0.9998046
6	0x3f807840	1.0036697
7	0x3f8079ec	1.0037208
8	0x3f804725	1.0021712
9	0x3f7e2b50	0.9928484
10	0x3f7f1b08	0.9965062
11	0x3f8061de	1.0029867
12	0x3f7efc75	0.9960397
13	0x3f8073cb	1.0035337
14	0x3f80b887	1.0056313
15	0x3f7ffb5a	0.9999291

bottleneck.conv1.bias f4 [16]
0	0x3d76ee66	0.06028595
1	0x3cc165da	0.023608137
2	0x3dcd3cf9	0.10021395
3	0x3db6743d	0.089088894
4	0xbd810b27	-0.06300955
5	0xbd1da304	-0.038485542
6	0x3d176cc2	0.036968954
7	0x3db1cdf1	0.08681858
8	0xbdb5cacd	-0.08876572
9	0xbc425c8e	-0.011862887
10	0x3d3447a2	0.044013627
11	0xbdeb506e	-0.1148995
12	0xbd023ae7	-0.031794455
13	0x3de2e66d	0.110791065
14	0x3dd0c093	0.101929806
15	0xbd080da0	-0.03321612

bottleneck.conv1.weight f4 [16, 8, 3, 3]
0	0xbd60c829	-0.054878388
1	0xbceb625d	-0.028733427
2	0x3db9164d	0.09037457
3	0x3d21d64e	0.039511018
4	0x3dbc295c	0.09187576
5	0xbc940c44	-0.018072255
6	0xbde7acb1	-0.11312235
7	0x3db158a6	0.086594865
8	0x3cea0b47	0.02856983
9	0xbb3fc331	-0.002926063
10	0x3d34094c	0.04395418
11	0x3dcceb20	0.10005784
12	0xbd8eba18	-0.06969088
13	0xbdccd199	-0.10000915
14	0x3d3da2d8	0.046297878
15	0x3d8c1ed7	0.0684182
16	0x3c96828e	0.0183728
17	0x3dcb1574	0.09916201
18	0xbcd65c16	-0.026166957
19	0x3cae0420	0.021242201
20	0xbde9424f	-0.113896005
21	0xbdb284ea	-0.087167576
22	0xbd6350fe	-0.055497162
23	0x3dab30bf	0.08358907
24	0xbccad66d	-0.02476045
25	0x3d91c27a	0.071171716
26	0xbd9ffe30	-0.07812154
27	0xbd94cb93	-0.07265391
28	0xbd4ac61a	-0.04950533
29	0x3d452775	0.048133332
30	0x3d36b597	0.04460677
31	0x3d33cadb	0.04389463
32	0xbdc4edec	-0.096156925
33	0x3dca3c87	0.09874826
34	0xbdf02fde	-0.1172788
35	0x3cd7a8dd	0.026325637
36	0x3d1b5524	0.037922993
37	0xbd5d74ee	-0.05406659
38	0x3ae64804	0.001756907
39	0xb91361d0	-0.0001405545
40	0xbb35bd07	-0.0027731077
41	0x3dc446b9	0.09583802
42	0xbd80cbf0	-0.06288898
43	0x3d94ce60	0.072659254
44	0x3d9aaa2d	0.0755199
45	0x3ddd8686	0.10816674
46	0xbd0e6b15	-0.03477009
47	0x3dbe1029	0.09280426
48	0x3da362be	0.07977818
49	0x3d3cc39b	0.04608498
50	0x3d9e43a4	0.07727745
51	0x3d7061d1	0.058687035
52	0x3d0c71b3	0.03428812
53	0xbd94897e	-0.07252787
54	0x3da892a5	0.08231095
55	0xbd133d4a	-0.03594712
56	0xbc710093	-0.01470961
57	0x3d95ae47	0.073086314
58	0xbcccaa66	-0.024983596
59	0xbdde9f08	-0.108701766
60	0xbcfc37c1	-0.030788304
61	0xbdeea521	-0.116525896
62	0xbc89b208	-0.016808525
63	0x3db9d257	0.09073322
64	0x3d8c21fd	0.0684242
65	0xbd025c37	-0.031826224
66	0xbcad80bf	-0.021179555
67	0x3dde4ecb	0.10854872
68	0x3d4d0bef	0.05006021
69	0x3dcfc074	0.101441294
70	0xbd85eead	-0.065396644
71	0x3d646edf	0.055769797
72	0x3aab876a	0.0013086621
73	0x3c65feb0	0.014037773
74	0xbd062483	-0.032749664
75	0xbdfea1e9	-0.12433226
76	0xbdd8d57e	-0.105875954
77	0xbc87fc0e	-0.016599681
78	0x3d20eda4	0.03928913
79	0xbd6eb43c	-0.058277354
80	0xbd0bf07b	-0.034164887
81	0x3d7f08d9	0.062264297
82	0x3ca77032	0.020439241
83	0x3d739fd1	0.059478585
84	0xbd58d392	-0.052936144
85	0xbd12d2c9	-0.03584555
86	0xbced6c8d	-0.028982425
87	0xbcc106f6	-0.02356289
88	0x3d9e424b	0.07727488
89	0xbd804d3f	-0.062647335
90	0x3dbed607	0.09318166
91	0x3d2be489	0.041965995
92	0xbdc4d2e9	-0.096105404
93	0x3da914fa	0.08255954
94	0x3c389180	0.011265159
95	0x3d7cd199	0.061723325
96	0xbdf5af7e	-0.11996363
97	0xbdc647fc	-0.09681699
98	0x3cceb5cf	0.025233177
99	0xbdec7594	-0.11545864
100	0x3c7dc2cd	0.015488339
101	0xbd4f3228	-0.050584942
102	0x38084028	3.2484677e-05
103	0x3dad9026	0.0847476
104	0x3d0fccf9	0.035107587
105	0xbdf8b467	-0.12143784
106	0xbc925aae	-0.017865505
107	0x3daac71a	0.08338757
108	0xbda40601	-0.08008958
109	0xbde72dc2	-0.112880245
110	0xbdd0934f	-0.10184347
111	0x3da24fe8	0.07925397
112	0x3c66a02b	0.014076273
113	0x3cc6d072	0.024269316
114	0xbcaed472	-0.021341536
115	0x3d967aaa	0.07347615
116	0x3d506307	0.05087569
117	0xbd52ef05	-0.051497478
118	0x3db8014d	0.08984623
119	0xbcbe430a	-0.023225326
120	0xbc2022fe	-0.009773968
121	0xbd834eab	-0.06411489
122	0xbdc100fb	-0.09424015
123	0x3d577481	0.05260134
124	0xbdad4164	-0.08459738
125	0x3ca496f4	0.020091511
126	0xbdc2ee04	-0.09518054
127	0xbd348979	-0.044076417
128	0xbde736a7	-0.11289721
129	0xbbae6017	-0.0053215134
130	0x3dcfb8c9	0.10142667
131	0x3dec766e	0.11546026
132	0x3dabdc02	0.083915725
133	0xbb1f38b9	-0.0024295284
134	0x3db6a21b	0.08917638
135	0x3cdcb834	0.026943304
136	0xbd8b7c87	-0.06810861
137	0xbd493bf3	-0.049129438
138	0x3d3afd4d	0.045651723
139	0xbd51ad0a	-0.051190414
140	0xbde20297	-0.1103565
141	0x3da3b965	0.079943456
142	0x3d73c30f	0.059512194
143	0x3c530191	0.012878791
144	0x3d8cedd7	0.06881302
145	0xbb9fcf4d	-0.004877007
146	0x3d771283	0.06032039
147	0x3d3bd354	0.045855835
148	0x3dc7b8f2	0.097520724
149	0x3d0d0bd1	0.034435097
150	0x3cef0f26	0.029182028
151	0xbcd9ef7b	-0.026603451
152	0x3ccb61e3	0.02482695
153	0xbde8b779	-0.1136312
154	0xbd102aad	-0.03519695
155	0xbde4b4a8	-0.1116727
156	0x3c6299f4	0.013830651
157	0xbdefaaf0	-0.117025256
158	0x3b9101cf	0.0044252644
159	0xbdda2308	-0.10651213
160	0xbb5af434	-0.0033409717
161	0xbd936263	-0.071965
162	0xbd2ff264	-0.04295577
163	0x3da8d171	0.08243073
164	0x3da6c926	0.08143835
165	0x3db7872b	0.08961328
166	0x3cede85e	0.029041465
167	0x3d108938	0.035287112
168	0xbd2a7b37	-0.041621413
169	0xbcae84e4	-0.021303602
170	0xbda5ac98	-0.0808956
171	0xbc84348c	-0.016138338
172	0xbd64a3ae	-0.05582016
173	0xbd75b51e	-0.05998718
174	0x3d498f57	0.049208965
175	0xbcaa4650	-0.02078548
176	0xbd2085ae	-0.039189987
177	0x3d019749	0.031638417
178	0xbd9cb335	-0.076513685
179	0xbd3d0e2e	-0.0461561
180	0xbdc5c02b	-0.09655794
181	0xbda590f8	-0.08084291
182	0x3d5955fb	0.053060513
183	0x3dbf7081	0.0934763
184	0xbc90c740	-0.017673135
185	0x3d99735d	0.07492707
186	0x3d94d796	0.07267682
187	0xbdb7e04c	-0.08978328
188	0xbdfcc15e	-0.12341569
189	0x3ced3035	0.028953651
190	0xbdde2690	-0.10847199
191	0x3d5ffaa0	0.054682374
192	0xbdc5f9a7	-0.09666758
193	0xbd5ca8dd	-0.053871978
194	0xbdfa68c3	-0.12227013
195	0x3dbcb649	0.09214456
196	0x3cbc7463	0.023004716
197	0xbd65d22d	-0.056108642
198	0xbd497bad	-0.049190212
199	0x3d964e28	0.07339126
200	0x3c1c0153	0.0095218
201	0x3c93970b	0.018016359
202	0x3b10b0cc	0.0022078035
203	0xbdba7cd5	-0.09105841
204	0xbdd7884e	-0.10524045
205	0xbd81409a	-0.0631115
206	0xbdee4360	-0.116339445
207	0x3debe342	0.11517955
208	0x3cda1dd8	0.026625559
209	0xbddd0842	-0.10792591
210	0x3db6c5b1	0.089244254
211	0xbdd72a3e	-0.10506104
212	0xbda93132	-0.082613364
213	0xbcb3bc09	-0.021940248
214	0x3de7924d	0.113072015
215	0xbdafecb3	-0.08590069
216	0xbc488a98	-0.012240075
217	0x3d97157a	0.07377143
218	0x3de530a3	0.11190917
219	0x3d4d26ab	0.050085705
220	0x3cff924a	0.031197686
221	0x3dc80003	0.09765627
222	0x3d9a0f4d	0.0752245
223	0xbc839681	-0.016062977
224	0x3da99478	0.08280271
225	0x3d9c5757	0.07633846
226	0xbdde6695	-0.1085941
227	0x3d75717f	0.05992269
228	0xbd9d4344	-0.076788455
229	0x3c211a79	0.009832972
230	0x3da2f5b3	0.0795702
231	0x3d38dfe4	0.045135394
232	0x3dd668cc	0.10469207
233	0x3d1af270	0.037828863
234	0xbd1d2583	-0.038365852
235	0xbd0bdc04	-0.03414537
236	0x3dca288d	0.09871016
237	0x3d950fb6	0.07278387
238	0x3b7f17d4	0.0038924115
239	0xbd2565bd	-0.04038023
240	0x3c12a5cf	0.008950665
241	0x3d1eaaea	0.038737215
242	0xbd29c2fa	-0.04144571
243	0x3deab9e3	0.11461236
244	0xbd8943c9	-0.06702382
245	0x3d308091	0.04309136
246	0x3d830aa4	0.06398514
247	0xbd72571c	-0.059165105
248	0x3d487aec	0.048945352
249	0xbdac3056	-0.08407657
250	0x3d59d539	0.05318186
251	0xbd157a7b	-0.03649376
252	0xbcd20153	-0.025635397
253	0xbd0f1c8c	-0.034939334
254	0xbd0df8ae	-0.034660988
255	0xbc6e7d12	-0.014556186

bottleneck.conv2.bias f4 [16]
0	0xbc2377da	-0.009977305
1	0x3ce10d79	0.027472245
2	0xbd342977	-0.043984856
3	0xbd252a7d	-0.040323723
4	0xbd2bc1c3	-0.041932832
5	0xbd442d5c	-0.04789482
6	0xbda73159	-0.08163709
7	0xbb428e12	-0.0029686731
8	0xbd08b939	-0.033379767
9	0xbd6c7029	-0.05772415
10	0x3d6b13ee	0.057392053
11	0xbd966176	-0.07342808
12	0x3d0920f3	0.03347869
13	0xbd3a37cb	-0.045463365
14	0xbcfeac2e	-0.031087961
15	0xbd94e795	-0.07270733

bottleneck.conv2.weight f4 [16, 16, 3, 3]
0	0xbdb1b4c1	-0.08677054
1	0xbd2abf2a	-0.041686215
2	0xbaa5a405	-0.0012637383
3	0x3d281e00	0.041044235
4	0x3d7b01da	0.061281063
5	0xbc18555f	-0.009297698
6	0x3a659bdd	0.0008758882
7	0x3d92a70c	0.07160768
8	0x3cdac176	0.026703577
9	0x3d1f5234	0.038896754
10	0xbca4944f	-0.02009025
11	0xbc87f91e	-0.01659828
12	0x3d1c0f86	0.03810074
13	0x3d9a306b	0.07528766
14	0xbd2b0b6d	-0.041758943
15	0x3cb1fe03	0.021727568
16	0xbd6947a1	-0.056953076
17	0xbd913e37	-0.07091945
18	0xbd93e5a5	-0.072215356
19	0x3d97fb18	0.07420939
20	0x3d1464ce	0.036228947
21	0xbc7d0f14	-0.015445489
22	0xbd5017b7	-0.050803866
23	0x3c790342	0.015198531
24	0xbd9b3abe	-0.075795636
25	0x3d82abbb	0.06380411
26	0xbce4de12	-0.027937923
27	0x3cbbedc0	0.022940516
28	0x3ce5be4f	0.028044848
29	0x3c2fc1e1	0.010727377
30	0x3cab21d4	0.020890154
31	0xbc874e19	-0.016516732
32	0xbd93730a	-0.07199676
33	0xbd48ec06	-0.049053214
34	0xbd21c920	-0.03949845
35	0x3d66ce30	0.05634898
36	0xbda2558b	-0.07926472
37	0xbd197f21	-0.037474755
38	0x3b873ea3	0.00412734
39	0x3d0af801	0.03392792
40	0xbd57e458	-0.052708
41	0x3da4335a	0.08017607
42	0x3cc8121c	0.024422698
43	0xbbaf855b	-0.0053564734
44	0x3d46e198	0.048554987
45	0xbdb7476c	-0.089491695
46	0xbbee71b1	-0.0072767367
47	0xbd913027	-0.070892625
48	0xbcbc6726	-0.022998404
49	0xbda08125	-0.07837132
50	0x3d8d5593	0.069010876
51	0x3d56a088	0.05239919
52	0xbb58cc69	-0.0033080822
53	0xbd211521	-0.03932679
54	0xbcb03546	-0.021509778
55	0xbcf94bd8	-0.030431673
56	0xbd49dffc	-0.049285874
57	0xbdaba6f2	-0.08381452
58	0x3ceaac22	0.028646532
59	0x3d1a2ea4	0.037642136
60	0xbc6ffd7d	-0.014647839
61	0x3c726a4c	0.014795851
62	0x3d43fc22	0.047847874
63	0xbd1c23f5	-0.03812023
64	0x3d516b99	0.051128004
65	0x39d76f8f	0.00041091113
66	0x3c884f74	0.016639449
67	0x3caa8f49	0.020820277
68	0x3d6daa0a	0.05802349
69	0xbd7aa9ca	-0.06119708
70	0xb9f1497e	-0.00046021858
71	0xbd7e24a7	-0.062046673
72	0x3d069b8a	0.032863177
73	0xbac398b9	-0.0014922834
74	0xbd29938b	-0.041400474
75	0xbda376b1	-0.07981623
76	0xbb8c44ac	-0.0042806473
77	0xbbcd3ec7	-0.006263587
78	0x3d0855ed	0.03328507
79	0xbd83a7f9	-0.064285226
80	0x3b842478	0.0040326677
81	0x3d19550b	0.03743462
82	0xbd1d56f3	-0.038413
83	0x3cdfeb79	0.027333962
84	0x3d0cc784	0.03436996
85	0xbcac459e	-0.02102929
86	0xbca35c64	-0.019941516
87	0xbd831290	-0.06400025
88	0xbc9d7048	-0.019218579
89	0x3d24c1e0	0.040223956
90	0x3cbda03a	0.023147691
91	0xbd979958	-0.07402295
92	0xbd7a3ec1	-0.061095003
93	0x3d1847c4	0.037177816
94	0xbcf0579d	-0.029338652
95	0x3d723995	0.059136946
96	0x3d905be9	0.070487805
97	0x3cc3d6a7	0.023906065
98	0xbd8b399a	-0.06798096
99	0x3ca72974	0.020405509
100	0x3d761c67	0.06008568
101	0xbcd5a1fd	-0.026078219
102	0xbd9ae16d	-0.07562528
103	0x3d4e8b3c	0.050425753
104	0x3cbe4df7	0.023230536
105	0x3c54d837	0.012991003
106	0xbd865ccb	-0.065606676
107	0xbd9e8ee0	-0.07742095
108	0xbda245ac	-0.07923445
109	0x3d463041	0.048385862
110	0x3d86c238	0.06580013
111	0x3d4e1805	0.050315876
112	0x3d91841c	0.07105276
113	0xbd07d05c	-0.03315769
114	0x3cc24ef0	0.023719281
115	0x3d5e29c4	0.05423905
116	0xbc034cfc	-0.00801396
117	0xbcff9dc9	-0.031203168
118	0x3d12e068	0.03585854
119	0xbcb8f4e8	-0.022577718
120	0x3d14c7d6	0.03632339
121	0x3ca3d2f0	0.019998044
122	0x3c807103	0.015678888
123	0xbbbbb756	-0.0057286425
124	0x3c862168	0.016373351
125	0x3d9b330e	0.07578097
126	0xbd9ebb0c	-0.0775052
127	0x3ce3ac16	0.027792018
128	0xbb8267b5	-0.003979648
129	0xbce3fab6	-0.02782951
130	0xbd8f7c97	-0.070061855
131	0xbc524bfb	-0.012835498
132	0xbd7db2c8	-0.061938077
133	0xbd236020	-0.039886594
134	0x3da6b577	0.081400804
135	0xbc819ac7	-0.015820874
136	0x3d561aa4	0.0522715
137	0xbdaec0d4	-0.08532873
138	0x3d61a181	0.055085663
139	0x3abc4b60	0.0014365725
140	0x3c4ad08b	0.012378822
141	0x3c88f49c	0.016718201
142	0x3d3a391d	0.045464624
143	0x3d90d6c6	0.07072215
144	0xbc868e75	-0.01642535
145	0x3b8c873c	0.004288582
146	0x3d902974	0.070391566
147	0xbd408c20	-0.047008634
148	0xbcd716e0	-0.026256025
149	0xbd11e417	-0.035617914
150	0x3cf41a09	0.02979757
151	0xbd6dd09c	-0.058060274
152	0xbd85c691	-0.06532014
153	0xbb099bcb	-0.00209974
154	0xbc54c952	-0.012987452
155	0xbc1e744e	-0.009671284
156	0xbd36482b	-0.04450242
157	0xbd2242b6	-0.0396144
158	0xbc798382	-0.015229108
159	0x3c7ddc32	0.015494393
160	0x3ca443f9	0.020051943
161	0x3d8a8c77	0.06765073
162	0x3d3fcabf	0.046824213
163	0x3d2cd477	0.04219481
164	0xbd203e69	-0.03912202
165	0x3ca993d9	0.020700382
166	0xbd8d5d46	-0.06902556
167	0x3da8bba1	0.082389124
168	0xbd47f94e	-0.04882174
169	0x3ccad307	0.024758829
170	0x3d609e8f	0.054838713
171	0xbd1923cc	-0.037387654
172	0x3d3d435a	0.04620681
173	0x3ca69e18	0.020339057
174	0x3dae94bd	0.08524463
175	0x3d860d60	0.0654552
176	0x3d8bf51a	0.06833859
177	0x3d3e6753	0.046485256
178	0xbd738a62	-0.059458144
179	0xbc760aeb	-0.0150172515
180	0xbccf4b15	-0.025304357
181	0x3bca542d	0.0061745853
182	0xbc9e06b8	-0.019290313
183	0x3d7afa8b	0.061274093
184	0xbb6e94af	-0.003640454
185	0x3aa02bef	0.0012220124
186	0xba495d03	-0.00076814013
187	0x3d7472f1	0.05967993
188	0x3d03dd65	0.03219356
189	0xbc6e449b	-0.014542724
190	0xbd8ba3a3	-0.068183206
191	0x3cc3cc96	0.023901265
192	0x3d14ee8a	0.0363603
193	0xbd2c750c	-0.042103812
194	0x3d401d5f	0.04690301
195	0x3bc69194	0.0060598347
196	0x3d1f98cb	0.038964074
197	0xbd92e2be	-0.07172154
198	0xbb135c90	-0.0022485591
199	0xbd90b87a	-0.07066436
200	0x3cd13120	0.02553612
201	0x3d20aed5	0.039229233
202	0xbd49add3	-0.049238037
203	0x3d7ef8d3	0.062249016
204	0xbd8b732c	-0.06809077
205	0xbd609340	-0.05482793
206	0xbc090058	-0.008361898
207	0x3d9e8ed1	0.07742084
208	0xb996b7fc	-0.00028747309
209	0xbd4494e4	-0.047993556
210	0x3d815a22	0.063160196
211	0xbd72ab5d	-0.059245456
212	0xbdae24eb	-0.08503135
213	0x3ced8224	0.02899272
214	0x3c898edc	0.016791753
215	0xbd53bdfc	-0.051694855
216	0xbd351cd6	-0.044216953
217	0xbc9fcdd8	-0.019507334
218	0xbcb058a3	-0.02152664
219	0x3d15a3dd	0.036533225
220	0x3d8b3079	0.06796355
221	0xbd8a0458	-0.0673911
222	0xbd9cf594	-0.07664028
223	0x3cda0722	0.02661473
224	0x3cbce5c8	0.023058787
225	0xbd868b6f	-0.065695636
226	0xbcbdccce	-0.023168948
227	0xbd3f2818	-0.046669096
228	0xbd1107d8	-0.03540787
229	0x3cf9d9de	0.030499395
230	0xbc17bff1	-0.009262071
231	0x3d474c6a	0.04865686
232	0xbd79f547	-0.06102493
233	0xbc0c040b	-0.008545886
234	0xbdad773f	-0.0847001
235	0xbd0d8ee1	-0.034560088
236	0x3d6d73d9	0.05797181
237	0xbd9456d3	-0.07243123
238	0x3d3891b1	0.045060817
239	0xbc13261b	-0.008981253
240	0x3d5c058b	0.053716224
241	0x3d347dce	0.04406529
242	0x3d971140	0.07376337
243	0x3d490414	0.049076155
244	0xbdad97ca	-0.08476217
245	0xbd845da1	-0.06463171
246	0x3da1526f	0.07877051
247	0x3da9c206	0.0828896
248	0x3ca53439	0.020166503
249	0xbad80b9f	-0.0016482956
250	0x3d370ef5	0.044692
251	0xbd9a752f	-0.07541882
252	0x3c1b2361	0.009468884
253	0x3bc537f3	0.0060186326
254	0x3d944f07	0.07241636
255	0xbd99073a	-0.074720815

decoders.0.conv.bn1.bias f4 [8]
0	0x3bbd16de	0.0057705482
1	0x3c17888d	0.009248865
2	0x3c0a5b7f	0.008444666
3	0xbaf7759c	-0.0018879655
4	0x39ef1edd	0.00045608627
5	0xbc1e749f	-0.009671359
6	0xbc0f8eb6	-0.008762052
7	0x3b834694	0.0040062163

decoders.0.conv.bn1.running_mean f4 [8]
0	0xbdf1ae98	-0.11800879
1	0xbddc8257	-0.10767048
2	0xbcbdc116	-0.02316336
3	0x3d9ec65a	0.07752676
4	0xbd312cad	-0.043255497
5	0xbdf8dfda	-0.12152071
6	0x3ce3e12e	0.027817335
7	0x3c3fe991	0.011713401

decoders.0.conv.bn1.running_var f4 [8]
0	0x3ebc98ef	0.3683543
1	0x3eb49c64	0.35275567
2	0x3eb52cc6	0.35385722
3	0x3eb63f90	0.3559537
4	0x3eb6ba06	0.356888
5	0x3eb587ec	0.35455263
6	0x3ec179cb	0.37788233
7	0x3eb5d40d	0.35513344

decoders.0.conv.bn1.weight f4 [8]
0	0x3f805bc4	1.0028005
1	0x3f8132fc	1.0093684
2	0x3f813082	1.0092928
3	0x3f7dec6b	0.9918887
4	0x3f7f7120	0.9978199
5	0x3f7d8284	0.99027276
6	0x3f7e809f	0.9941501
7	0x3f801327	1.0005845

decoders.0.conv.bn2.bias f4 [8]
0	0xbc0ebbc0	-0.008711755
1	0x3c268865	0.010164355
2	0x3c230ce7	0.009951807
3	0xbbf56090	-0.007488318
4	0x3c2cf26c	0.010555845
5	0x3c036fd5	0.008022268
6	0x3acc6f2e	0.0015597099
7	0x3c0d5403	0.008625987

decoders.0.conv.bn2.running_mean f4 [8]
0	0xbd78c3e4	-0.06073369
1	0x3daac570	0.083384395
2	0xbe52c9d7	-0.20584808
3	0xbd9c175b	-0.07621642
4	0x3dccd57c	0.100016564
5	0x3ca1cafb	0.019750109
6	0x3c841c00	0.016126633
7	0xbdcc3de1	-0.0997274

decoders.0.conv.bn2.running_var f4 [8]
0	0x3ec01912	0.37519127
1	0x3edb465c	0.42827117
2	0x3ecb6337	0.39724132
3	0x3ecba14f	0.39771506
4	0x3ed4a565	0.41532436
5	0x3ec13c81	0.37741473
6	0x3ec531bf	0.38514516
7	0x3ec946b9	0.3931177

decoders.0.conv.bn2.weight f4 [8]
0	0x3f7db911	0.99110514
1	0x3f81537b	1.0103601
2	0x3f811902	1.0085757
3	0x3f7dcec7	0.9914364
4	0x3f814b91	1.0101186
5	0x3f80ac7c	1.0052638
6	0x3f805daf	1.002859
7	0x3f80af92	1.005358

decoders.0.conv.conv1.bias f4 [8]
0	0x3d1bf2f0	0.03807348
1	0xbc7b79f0	-0.015348896
2	0xbd6c9e8d	-0.057768393
3	0xbd930db1	-0.07180346
4	0x3c881f72	0.016616557
5	0xbd084a88	-0.033274204
6	0xbc9db897	-0.019253058
7	0x3d79e9bd	0.061013926

decoders.0.conv.conv1.weight f4 [8, 16, 3, 3]
0	0x3cebc561	0.028780641
1	0xbd08c955	-0.03339513
2	0x3cc5a164	0.024124809
3	0x3cebc4ed	0.028780425
4	0xbd9ee762	-0.077589765
5	0xbd4713e0	-0.04860294
6	0x3d6a72e5	0.05723848
7	0xbd33c9a7	-0.043893483
8	0x3d4fb18c	0.05070643
9	0x3d7c1292	0.061541148
10	0xbceef346	-0.029168736
11	0x3cee4960	0.029087722
12	0xbd2b73c7	-0.04185846
13	0xbcf127ba	-0.029437888
14	0x3daba00d	0.08380137
15	0x3c74f7e5	0.014951681
16	0x3d588688	0.052862674
17	0x3d823938	0.0635857
18	0x3dae9000	0.085235596
19	0x3dad7bbb	0.08470865
20	0x3db1febe	0.08691166
21	0xbd92f68e	-0.07175933
22	0x3d9209ea	0.07130797
23	0x3ce2e805	0.027698526
24	0x3d91c107	0.07116895
25	0xba4b530a	-0.0007756209
26	0x3d9c1623	0.0762141
27	0xbdb1d2ad	-0.08682761
28	0x3d5fd721	0.054648522
29	0x3d2f0492	0.042728968
30	0x3d367998	0.044549555
31	0xbd29d40f	-0.041462
32	0x3cf00ca7	0.029302908
33	0x3d143333	0.03618164
34	0x3ba4adde	0.0050256094
35	0x3d441a6e	0.047876768
36	0xbcddbf51	-0.027068766
37	0xbdacf061	-0.08444286
38	0x3c398781	0.011323811
39	0xbcfc03b5	-0.030763486
40	0x3c9b7bc2	0.01897991
41	0xbd025209	-0.031816516
42	0xbd912110	-0.07086384
43	0x3d4bb66d	0.04973452
44	0x3ba3d3cb	0.004999613
45	0xba9edf54	-0.0012121
46	0xbd70d9d5	-0.05880149
47	0xbd338b34	-0.043833926
48	0x3da2ca94	0.07948795
49	0xbc7c5833	-0.015401888
50	0xbca51b49	-0.020154612
51	0x3d58aee4	0.052901164
52	0x3d577248	0.05259922
53	0xbdaee7d8	-0.085403144
54	0x3d3ff917	0.04686841
55	0xbd072a58	-0.032999367
56	0xbd957b10	-0.07298863
57	0xbc1ec207	-0.009689814
58	0xbd662531	-0.056187812
59	0xbc3fc43a	-0.011704499
60	0x3d450675	0.04810186
61	0x3d21a6db	0.039465766
62	0x3d0cfd6f	0.03442138
63	0x3cabd93b	0.020977607
64	0xbd80f93f	-0.0629754
65	0x3b5ba1cd	0.0033513189
66	0x3d880776	0.06642048
67	0x3d2e6ae5	0.04258241
68	0xb9d4910b	-0.00040543856
69	0x3b0421fe	0.0020161862
70	0xbbe9dd8c	-0.007137006
71	0xbd79f308	-0.06102279
72	0xbd50a81a	-0.050941564
73	0xbcb152ff	-0.021646021
74	0x3c0b823f	0.00851494
75	0xbda8934e	-0.08231221
76	0xbce6c70c	-0.028171085
77	0x3d755da8	0.05990377
78	0xbc5dd1a4	-0.013538752
79	0x3d34afb7	0.044112887
80	0x3c0dd318	0.008656286
81	0xbd41697b	-0.047219735
82	0xbdaada1e	-0.08342384
83	0x3d6bc77f	0.0575633
84	0xbd687176	-0.05674883
85	0xbc879a5c	-0.016553096
86	0x3cffedff	0.031241415
87	0x3d60e980	0.054910183
88	0xba7ce7a6	-0.00096475554
89	0xbd5d13a5	-0.053973813
90	0x3ce92adf	0.028462825
91	0xbbb93af0	-0.005652778
92	0x3d61d13d	0.055131186
93	0x3d2dd650	0.042440712
94	0x3c9508a0	0.01819259
95	0x3da68e54	0.08132616
96	0xbccdee3f	-0.025138019
97	0xbd26d03b	-0.040725928
98	0xbaf45168	-0.0018639984
99	0x3c6e2393	0.014534849
100	0xbd89c153	-0.06726327
101	0x3d1b28e4	0.037880793
102	0x3d0278ad	0.031853367
103	0xbd8fd0b9	-0.070222326
104	0xbd3818cf	-0.044945534
105	0xbda244f4	-0.07923308
106	0xbcc0653f	-0.023485778
107	0x3d79cb92	0.060985155
108	0x3d3f44ec	0.04669659
109	0xbd3e49ed	-0.04645722
110	0x3d8b6ca0	0.06807828
111	0x3d5ffcf5	0.054684598
112	0xbd25ac98	-0.0404478
113	0xbd908ac7	-0.0705772
114	0x3d4d3a98	0.050104707
115	0xbca0e9ca	-0.01964273
116	0xbab384e1	-0.0013696217
117	0xbc8ba994	-0.017048635
118	0xbda18344	-0.07886365
119	0x3d86f068	0.065888226
120	0xbd2a96f7	-0.041647878
121	0xbd0f512e	-0.03498953
122	0x3d9d78b8	0.07689041
123	0x3d80a491	0.062813886
124	0xbd39bed4	-0.045348004
125	0x3c29f971	0.010374413
126	0x3d08fd56	0.033444725
127	0x3d1ad575	0.037801225
128	0xbd1f9cd4	-0.038967922
129	0xbd84718c	-0.0646697
130	0xbc323906	-0.010877853
131	0xbcfcfb60	-0.030881584
132	0xbcc9dd40	-0.024641633
133	0x3d928472	0.07154168
134	0xbd94d47b	-0.0726709
135	0xbd32bee3	-0.043639075
136	0xbd4cadd2	-0.049970455
137	0xbd9d47f0	-0.076797366
138	0x3d97e252	0.07416214
139	0x3d4bb802	0.04973603
140	0xbdaa3017	-0.08309954
141	0x3bde3f85	0.0067824745
142	0xbd71e113	-0.059052538
143	0xbd9714ff	-0.073770516
144	0xbd83b3ee	-0.06430803
145	0x3dab5fb0	0.0836786
146	0x3c94ed10	0.018179446
147	0x3983773a	0.00025075098
148	0x3d4428fe	0.047890656
149	0x3cf61176	0.030037623
150	0xbd649f36	-0.055815898
151	0xbce5fb50	-0.028073937
152	0xbd9a0012	-0.07519545
153	0x3d70a355	0.058749516
154	0x3d410210	0.047121108
155	0xbd954cc0	-0.072900295
156	0x3c5500b9	0.013000661
157	0xbceb4e56	-0.028723877
158	0x3cff7fcf	0.031188874
159	0xbcc1d044	-0.02365888
160	0xbd807b73	-0.06273546
161	0xbcda4c2a	-0.026647646
162	0x3d75e696	0.060034357
163	0x3d01ffbd	0.03173803
164	0xbd894968	-0.06703454
165	0xbc07267d	-0.008248922
166	0xbbfe456f	-0.007759742
167	0x3d87feaa	0.0664037
168	0x3d0321bb	0.03201459
169	0x3d31f778	0.043448895
170	0x3d0771df	0.03306758
171	0xbd4c335a	-0.04985366
172	0x3d9af0b9	0.075654455
173	0x3d48e1b7	0.049043383
174	0x3db76080	0.08953953
175	0x3c71c418	0.014756225
176	0xbd7a4104	-0.06109716
177	0x3cf712a6	0.03016026
178	0x3d52008f	0.051270064
179	0x3d4804c1	0.04883266
180	0xbcd4276d	-0.025897706
181	0x3d2fdbb1	0.042934123
182	0x3b670c0e	0.0035254988
183	0x3d5bfbed	0.053707052
184	0xbd80e891	-0.062943585
185	0xbd3e261a	-0.046423055
186	0x3c5066d2	0.012719827
187	0xbceb806e	-0.028747763
188	0x3d5bb4ed	0.05363934
189	0xbd78705f	-0.06065404
190	0x3c99144a	0.018686432
191	0x3d6404c1	0.055668596
192	0xbd2ce35d	-0.042209018
193	0x3d1a18ee	0.03762143
194	0x3d73e692	0.05954606
195	0x3c40415a	0.011734331
196	0x3d8d9c53	0.06914582
197	0xbda90c15	-0.082542576
198	0xbcd9ded9	-0.02659552
199	0xbd114efe	-0.035475723
200	0xbda1c2e0	-0.078984976
201	0xbca87206	-0.020562183
202	0xbd47d8bf	-0.04879069
203	0x3cea3033	0.028587436
204	0xbd2f9cf7	-0.042874303
205	0x3d891b4b	0.06694659
206	0x3d2be163	0.041962992
207	0x3d17b304	0.037035957
208	0x3c62b34f	0.013836696
209	0xbd6d713f	-0.057969328
210	0x3d231314	0.039813116
211	0xbd4f64aa	-0.05063311
212	0x3cf20e74	0.029547907
213	0x3d48afd5	0.04899581
214	0x3d703613	0.05864532
215	0xbd80f042	-0.062958255
216	0x3d9512c7	0.07278972
217	0xbd6d7bf0	-0.057979524
218	0x3d375ba3	0.044765126
219	0xbcd2115c	-0.025643043
220	0x3da9c66a	0.082897976
221	0x3d5e4311	0.05426318
222	0x3d3e0caf	0.046398815
223	0xbbccd7f3	-0.006251329
224	0xbc8ffe74	-0.017577387
225	0x3d6c9380	0.057757854
226	0x3d889d6f	0.06670653
227	0x3d352778	0.044227093
228	0x3cb55f64	0.022140212
229	0xbd8adeae	-0.06780754
230	0x3bea6caf	0.0071540694
231	0xbd91b5dd	-0.07114766
232	0x3db17a1e	0.0866587
233	0xbcfc5bf9	-0.030805575
234	0xbcee637e	-0.029100176
235	0xbd38d39e	-0.04512369
236	0xbd90e308	-0.07074553
237	0xbd93fee3	-0.0722635
238	0xb9745c20	-0.00023303973
239	0xbd838909	-0.06422622
240	0xbc73a73b	-0.014871414
241	0x3d2c2154	0.04202397
242	0xb96d0500	-0.00022603944
243	0xbd2ec8da	-0.042672016
244	0x3d815d6e	0.063166484
245	0xbd0f7a7b	-0.035028916
246	0xbd245f3a	-0.040129878
247	0x3cfb8bdc	0.030706339
248	0x3d25e7e7	0.040504362
249	0xbd79b26d	-0.060961176
250	0xbc97920c	-0.018502258
251	0xbcf079e8	-0.029355004
252	0x3c84ccae	0.01621088
253	0x3d37aced	0.04484265
254	0x3d05ddc4	0.032682195
255	0xbd3c58dc	-0.04598318

decoders.0.conv.conv2.bias f4 [8]
0	0x3abca036	0.0014391008
1	0xbbabafc5	-0.005239459
2	0xbdd4e92d	-0.10396037
3	0xbccc2e57	-0.02492444
4	0x3d668ba5	0.05628552
5	0xbde3924e	-0.1111189
6	0xbd51db95	-0.0512348
7	0xbc073175	-0.008251538

decoders.0.conv.conv2.weight f4 [8, 8, 3, 3]
0	0xbd5adce9	-0.053433333
1	0x3d512499	0.051060293
2	0xbdbb023a	-0.09131284
3	0x3d908af3	0.070577525
4	0xbd2f00ea	-0.04272548
5	0x3dca20f6	0.09869568
6	0x3dc85f3b	0.09783789
7	0xbdbf7832	-0.09349097
8	0x3bef4476	0.0073018624
9	0x3c5cf7f6	0.013486853
10	0xbd94f41d	-0.072731234
11	0x3da85b96	0.08220594
12	0xbd45101a	-0.04811106
13	0xbd1074dc	-0.035267696
14	0xbd549a38	-0.051904887
15	0x3caf1879	0.021373974
16	0x3d72228a	0.05911497
17	0xbcbadd3a	-0.022810567
18	0xbde2e19e	-0.11078189
19	0xbca8eaf9	-0.020619856
20	0x3d923684	0.07139304
21	0x3d9ca28f	0.07648193
22	0xbd8f6e6c	-0.07003483
23	0xbd788564	-0.060674086
24	0x3d2778bb	0.040886622
25	0xbdbc2915	-0.09187523
26	0x3cfebdd2	0.031096373
27	0xbdd2fd90	-0.103022695
28	0x3d299e35	0.041410644
29	0x3bc78cac	0.0060897674
30	0x3dd9375a	0.106062606
31	0x3d1cf87b	0.038322907
32	0xbdb33ba1	-0.08751608
33	0xbda1a9bc	-0.078937024
34	0xbc14bd9b	-0.009078409
35	0x3dc6cdaf	0.097072
36	0x3db4f408	0.08835608
37	0x3d820c0a	0.063499525
38	0xbd69c5d9	-0.057073448
39	0x3dcaea96	0.09908025
40	0x3d6ff97f	0.058587547
41	0x3da3922f	0.07986867
42	0xbdb7dd83	-0.08977797
43	0xbd027626	-0.031850956
44	0x3968a3c0	0.00022186246
45	0x3d92814e	0.07153569
46	0xbc26c2e9	-0.010178306
47	0x3d086be7	0.03330603
48	0x3dec2287	0.11530023
49	0xbe0077e2	-0.12545732
50	0x3cb93326	0.022607397
51	0xbdd5d44b	-0.10440882
52	0xbcba808c	-0.022766374
53	0xbd3cc64b	-0.046087544
54	0xbda77db2	-0.08178271
55	0x3db491a7	0.088168435
56	0x3dbdd143	0.09268429
57	0xbd10e55f	-0.035374995
58	0xbd8bd366	-0.068274304
59	0xbd65c693	-0.05609758
60	0x3d984de4	0.074367315
61	0x3d4cf194	0.050035074
62	0xbdb0afad	-0.086272575
63	0xbd310c48	-0.043224603
64	0xbddd495a	-0.10805006
65	0x3d2948ca	0.041329183
66	0xbd78d350	-0.0607484
67	0xbd8abb7a	-0.067740396
68	0x3c3b12e6	0.01141808
69	0xbd74b934	-0.059746936
70	0x3da7cf54	0.081938416
71	0x3b85924c	0.004076278
72	0x3dc443b5	0.095832266
73	0xbcbea448	-0.023271695
74	0x3dda5014	0.10659805
75	0x3d0acfb7	0.0338895
76	0x3d598cb6	0.053112708
77	0x3db187e9	0.08668501
78	0x3cf8e61e	0.030383166
79	0x3e000a8f	0.12504028
80	0x3d82c00c	0.06384286
81	0xbd9882f0	-0.07446849
82	0xbdefbbd8	-0.1170575
83	0xbd71a9a2	-0.058999665
84	0xbc84ba95	-0.01620225
85	0x3d8a1d42	0.06743862
86	0x3d86c583	0.06580641
87	0xbd822642	-0.06354953
88	0xbd8ae6d0	-0.06782305
89	0x3d0feef2	0.035139985
90	0x3d965f42	0.07342388
91	0x3da56647	0.080761485
92	0x3dae753b	0.08518454
93	0x3d836879	0.06416411
94	0xbdb1d395	-0.08682934
95	0xbd5f70c9	-0.05455092
96	0xbd376d95	-0.04478224
97	0xbddaccb7	-0.106835775
98	0xbdb97ff1	-0.09057606
99	0x3d01cf3f	0.031691786
100	0xbdc8dbbe	-0.098075375
101	0x3dac2e23	0.084072374
102	0x3d0d60e8	0.034516245
103	0xbdb8fd6f	-0.090327136
104	0x3c6a6d6f	0.014308318
105	0x3db66432	0.089058295
106	0xbc94a56a	-0.018145282
107	0xbdeebbf9	-0.11656947
108	0xbdd3329a	-0.10312386
109	0x3bb05803	0.0053815856
110	0x3dd4a551	0.10383094
111	0xbd3aeb03	-0.04563428
112	0xbc87196f	-0.01649162
113	0x3d0937a7	0.03350034
114	0xbdf126d2	-0.117749825
115	0xbdd78171	-0.10522736
116	0xba6a213c	-0.0008931344
117	0x3db1447b	0.0865564
118	0xbc45a816	-0.012064001
119	0xbba40c04	-0.005006315
120	0xbe001d1e	-0.12511107
121	0x3d6662d9	0.056246612
122	0x3c7fbeaa	0.015609423
123	0x3d93e40f	0.07221233
124	0x3d85c4c8	0.06531674
125	0x3cb61aa1	0.022229495
126	0x3d852409	0.06501014
127	0x3dc89d8a	0.09795673
128	0x3bd05e31	0.0063588847
129	0xbcb3b853	-0.021938479
130	0xbd99f5b5	-0.07517568
131	0x3dba3451	0.0909201
132	0xbc2d04b3	-0.010560202
133	0xbdd75c4e	-0.105156526
134	0xbd0bad45	-0.03410079
135	0xbd1e37c2	-0.038627394
136	0x3ce5de73	0.028060174
137	0xbd326d66	-0.04356136
138	0x3dc9ed72	0.09859742
139	0x3db6c17b	0.08923622
140	0xbd2c2047	-0.04202297
141	0x3d8405a4	0.06446388
142	0x3dd13e75	0.10216991
143	0x3cc5de35	0.024153808
144	0x3b7e5f3b	0.0038814086
145	0x3db69130	0.08914411
146	0xbdcfd719	-0.101484485
147	0xbd5fdc46	-0.05465343
148	0x3d9e607e	0.07733248
149	0x3da8b01a	0.08236714
150	0xbd44ee43	-0.048078787
151	0xbc707b3d	-0.01467782
152	0x3dc8d6d0	0.09806597
153	0xbdadb416	-0.08481614
154	0x3d700bbf	0.058604952
155	0xbcb585fe	-0.022158619
156	0xbb819a3e	-0.0039551547
157	0xbdd1a442	-0.10236408
158	0x3c14842c	0.009064715
159	0x3d8a2dfa	0.067470506
160	0xbddde5c0	-0.10834837
161	0xbdf694de	-0.12040113
162	0x3c3e37c1	0.011609972
163	0x3dd62402	0.10456087
164	0xbc885ba8	-0.016645268
165	0xbdc36f19	-0.095426746
166	0xbcb3611f	-0.021896897
167	0x3dd52cbc	0.10408923
168	0x3d5382b6	0.051638328
169	0xbb37e993	-0.0028062805
170	0xbb150783	-0.0022740073
171	0x3b3d4a7d	0.002888351
172	0xbd67c89b	-0.056587797
173	0x3db28d00	0.087183
174	0xbc2b803d	-0.010467586
175	0x3cfbdf32	0.030746076
176	0x3d964765	0.07337836
177	0xbcd4e26f	-0.025986878
178	0xbd90fbf3	-0.070793055
179	0xbddf69e9	-0.10908873
180	0xbd019244	-0.03163363
181	0xbd86e48e	-0.06586562
182	0x3cdab474	0.026697375
183	0xbc4973ef	-0.012295707
184	0x3db109bd	0.086444356
185	0xbdc61808	-0.09672552
186	0xbde5f9d4	-0.112292916
187	0xbdd2b4ff	-0.102884285
188	0xbd264b00	-0.04059887
189	0x3cbd0491	0.023073466
190	0xbd838e04	-0.06423572
191	0xbdd870e0	-0.10568404
192	0xbd10f195	-0.03538664
193	0xbdadbd9d	-0.084834315
194	0x3d0ce135	0.03439446
195	0x3cf75422	0.030191485
196	0x3d8ceda3	0.06881263
197	0xbc1254cf	-0.008931353
198	0x3c994981	0.018711807
199	0xbcaa42e1	-0.020783843
200	0x3da02d3d	0.078211285
201	0x3d396f1b	0.045271974
202	0x3d916107	0.070985846
203	0x3d421de7	0.0473918
204	0xbda4ec5c	-0.080528945
205	0xbd01ffc0	-0.031738043
206	0xbdd3d885	-0.10344032
207	0xbd6fc062	-0.05853308
208	0x3daba25f	0.08380579
209	0x3da94834	0.08265725
210	0xbdde68af	-0.108598106
211	0xbd8d19ac	-0.06889662
212	0x3d71979f	0.058982488
213	0x3deff20f	0.11716091
214	0xbda141b4	-0.0787386
215	0xbd79c441	-0.060978178
216	0x3d49d776	0.049277745
217	0xbc17c851	-0.009264068
218	0xbc7eebd3	-0.015559155
219	0xbda451cf	-0.08023416
220	0xbdd7d931	-0.10539473
221	0xbd8eac7c	-0.069664925
222	0x3d8817a6	0.066451356
223	0xbd2befff	-0.041976925
224	0x3da7938a	0.08182438
225	0xbcb362c8	-0.021897689
226	0xbc3b2079	-0.011421316
227	0xbdecd9e0	-0.11564994
228	0x3db44958	0.08803052
229	0xbc4fa8ef	-0.012674554
230	0x3c523ae8	0.012831427
231	0xbc1dfaa5	-0.009642278
232	0xbd9e39e3	-0.07725885
233	0xbdea60d9	-0.114442535
234	0xbc0cc52c	-0.008591931
235	0x3dab11e8	0.08353025
236	0xbdb0f8d1	-0.08641208
237	0x3de782a5	0.11304215
238	0xbb9dbea4	-0.004813986
239	0x3bf60dab	0.0075089536
240	0xbd556a71	-0.052103464
241	0xbd86f730	-0.06590116
242	0xbd06eb31	-0.03293914
243	0x3d79b5ce	0.060964398
244	0xbcb188d4	-0.02167169
245	0xbda7e30f	-0.08197605
246	0xbd50358a	-0.05083231
247	0xbd84d464	-0.06485823
248	0xbd672bbf	-0.056438204
249	0x3deb90de	0.115022406
250	0xbdc1f9e4	-0.09471491
251	0x3da12e69	0.0787018
252	0x3d8ea739	0.06965489
253	0xbd199632	-0.037496753
254	0x3d355f56	0.044280373
255	0x3dd5aa91	0.104329236

decoders.0.up.bias f4 [8]
0	0x3e242298	0.16028821
1	0x3df53b23	0.1197417
2	0xbdae2e91	-0.085049756
3	0xbe1a8033	-0.15087967
4	0x3e1b32bf	0.15156077
5	0xbdccbbed	-0.099967815
6	0xbd5e4b3a	-0.05427096
7	0x3cf59279	0.02997707

decoders.0.up.weight f4 [16, 8, 2, 2]
0	0x3d76fc95	0.060299475
1	0xbda6e96b	-0.0814999
2	0x3e18055b	0.14845793
3	0x3e01b55b	0.12666838
4	0xbe134a92	-0.14383915
5	0x3d4f2b34	0.05057831
6	0x3d6b88c3	0.057503473
7	0x3e36b50e	0.17842504
8	0x3e31348b	0.173052
9	0xbbd59eb9	-0.0065191654
10	0xbdad1f51	-0.08453239
11	0x3df8a8ce	0.12141572
12	0xbde96d23	-0.11397769
13	0xbd8b4baf	-0.06801545
14	0x3e084bf9	0.13310231
15	0xbdf6e379	-0.12055106
16	0xbdb0b639	-0.08628506
17	0xbe1a3902	-0.15060809
18	0x3d9be74c	0.07612476
19	0xbd91e79d	-0.07124255
20	0xbe122ce6	-0.1427494
21	0xbe2224c7	-0.15834342
22	0xbe1bb924	-0.15207344
23	0x3d855acc	0.06511459
24	0xbd44d45e	-0.04805409
25	0xbdd72998	-0.1050598
26	0xbd83b212	-0.064304486
27	0xbdd56d87	-0.10421281
28	0xbe18b534	-0.14912874
29	0x3e1b1e19	0.151482
30	0xbda1c7d3	-0.078994416
31	0xbd8f35d9	-0.069926925
32	0xbe0e1844	-0.13876444
33	0xbcd8a84e	-0.026447441
34	0x3d544a91	0.051828925
35	0xbd5db425	-0.054126877
36	0xbdbf01ec	-0.093265384
37	0x3d904f7f	0.07046413
38	0x3dbe661a	0.09296818
39	0xbe1f640c	-0.15565509
40	0xbdaad061	-0.08340526
41	0x3dfd9277	0.123814516
42	0xbda628be	-0.0811324
43	0x3e2ff566	0.17183456
44	0x3de00752	0.10938896
45	0x3d5bb1a6	0.053636216
46	0x3cc4c5f8	0.02402018
47	0x3dae30a3	0.085053705
48	0x3e1f206a	0.15539709
49	0xbdaca667	-0.08430176
50	0xbe23305c	-0.15936416
51	0xbcaab1be	-0.020836707
52	0xbe115ede	-0.14196345
53	0x3d99504d	0.07486019
54	0xbd3d8524	-0.04626955
55	0xbe3113a4	-0.17292649
56	0x3a9e9f33	0.0012101888
57	0xbd874e81	-0.0660677
58	0xbd801f95	-0.06256024
59	0xbd9fbfab	-0.0780023
60	0xbdfea8fe	-0.124345765
61	0x3e2d89d5	0.1694711
62	0xbd6f4caa	-0.058422722
63	0xbdb51ae8	-0.088430226
64	0x3d8ce24e	0.06879102
65	0xbdae4b75	-0.08510486
66	0x3ccef728	0.025264338
67	0x3de81e99	0.11333961
68	0x3e0cfa23	0.13767295
69	0xbd7fc3e8	-0.06244269
70	0xbddcd66e	-0.10783087
71	0x3d7d5a73	0.061853837
72	0xbdf1b1af	-0.118014686
73	0xbd1bc604	-0.03803064
74	0x3e316cd4	0.17326671
75	0x3e397bd5	0.18113644
76	0xbe136d60	-0.14397192
77	0xbe1c0640	-0.15236759
78	0xbd06e225	-0.032930512
79	0x3e27d7e0	0.16390944
80	0xbc8d4677	-0.017245514
81	0xbdcbd8ba	-0.09953447
82	0x3e1e8b89	0.15482916
83	0x3d350386	0.044192813
84	0x3de4454e	0.11146031
85	0xbcd98f9e	-0.02655774
86	0x3e202fcc	0.15643233
87	0xbe26c1b5	-0.16284831
88	0xbca6b154	-0.020348229
89	0xbd62a9d5	-0.055337746
90	0xbd886287	-0.066594176
91	0x3c474a21	0.01216367
92	0x3e08b2cd	0.13349457
93	0xbde83f05	-0.11340145
94	0xbe20c3af	-0.15699647
95	0xbdcd3ea4	-0.100217134
96	0x3e06c64e	0.13161585
97	0x3cc7d9a6	0.024395775
98	0x3e22b3f8	0.15888965
99	0x3e18544d	0.14875908
100	0xbae467e1	-0.0017425978
101	0x3c5918d3	0.013250547
102	0xbe141d3e	-0.1446428
103	0xbe00ad42	-0.12566093
104	0xbc8767dc	-0.016529016
105	0x3e1bfc1b	0.1523289
106	0x3e1da77d	0.15395923
107	0xbd5ba9df	-0.0536288
108	0x3bad5b7e	0.0052904477
109	0x3daf0170	0.08545196
110	0xbbb48b40	-0.005509764
111	0x3c16a2a1	0.009194047
112	0x3d527315	0.051379282
113	0xbd30c920	-0.043160558
114	0xbcebb439	-0.02877246
115	0x3e314a5c	0.17313522
116	0x3d925fd9	0.07147188
117	0x3e321891	0.17392184
118	0x3d748ae0	0.059702754
119	0x3e3061b3	0.1722477
120	0x3e13f1a9	0.14447655
121	0x3dc6b065	0.09701613
122	0x3c4c9abb	0.0124880625
123	0xbdbc6a44	-0.09199956
124	0xbd84d362	-0.064856306
125	0x3ca9d10e	0.020729568
126	0xbdc9dae9	-0.09856207
127	0xbdb2a8f4	-0.087236315
128	0x3cf320e8	0.029678777
129	0x3dbfaa48	0.093586504
130	0xbdb3d7e2	-0.08781411
131	0x3dad009c	0.08447382
132	0xbe1ad5f6	-0.15120682
133	0x3dc19b90	0.09453499
134	0xbe0aa287	-0.13538562
135	0xbc723dbc	-0.014785226
136	0xbdc50976	-0.09620945
137	0x3dd79a42	0.10527469
138	0xbd37e1dc	-0.04489313
139	0xbaf8b5c8	-0.0018975073
140	0xbd902d48	-0.07039887
141	0xbde4bcc7	-0.11168819
142	0x3d74293f	0.059609648
143	0x3e012512	0.12611797
144	0x3dfc0184	0.123049766
145	0x3b974db3	0.0046174168
146	0xbd3602d0	-0.044436276
147	0x3c50e024	0.012748752
148	0xbdf46ea8	-0.119351685
149	0xbbfaddaf	-0.0076558213
150	0xbe387460	-0.18013144
151	0x3df81cd7	0.12114876
152	0xbd3dbf94	-0.04632528
153	0x3d860885	0.06544594
154	0x3d0e4da6	0.03474202
155	0x3da0fb1c	0.07860395
156	0x3d7fc703	0.06244565
157	0x3dda798f	0.10667717
158	0xbdb1f5c3	-0.086894535
159	0x3d898465	0.067147054
160	0xbd91198a	-0.07084949
161	0xbd8b5107	-0.06802564
162	0x3cf856a8	0.030314758
163	0x3dc0c2be	0.09412144
164	0x3d9f8cbf	0.07790517
165	0xbe0b7850	-0.13620114
166	0xbd3e5842	-0.046470888
167	0xbe1e3148	-0.15448487
168	0x3dcd6044	0.10028127
169	0x3d069be8	0.032863528
170	0xbcafdd88	-0.021467939
171	0x3db86089	0.090027876
172	0x3e18aa42	0.14908698
173	0xbe0f76c3	-0.14010148
174	0x3e08025f	0.13282155
175	0x3dc7af4d	0.09750233
176	0xbd63e10d	-0.055634547
177	0x3dc4e0ac	0.09613165
178	0xbd0ca412	-0.034336157
179	0x3e2bb0cb	0.1676666
180	0x3d8dc437	0.06922191
181	0xbc96aa9c	-0.0183919
182	0xbe29e109	-0.1658975
183	0xbe1fbeec	-0.15600175
184	0xbd9db474	-0.07700434
185	0xbde6f012	-0.112762585
186	0x3e320bd3	0.17387323
187	0x3e2d4106	0.16919336
188	0xbe09f532	-0.13472441
189	0xbe226a81	-0.1586094
190	0x3c22583f	0.009908735
191	0xbe01101c	-0.12603801
192	0xbd0ff9fc	-0.035150513
193	0x3e331ee7	0.17492257
194	0xbc94ef17	-0.018180413
195	0x3dbf4dbf	0.09341001
196	0x3d83b171	0.06430329
197	0x3d9e266d	0.07722173
198	0xbdc45dd1	-0.095882066
199	0xbdeebbcf	-0.116569154
200	0x3e2f2646	0.17104444
201	0xbcc80ae9	-0.024419265
202	0x3e2f75b8	0.1713475
203	0xbe393736	-0.18087468
204	0x3d27b288	0.040941745
205	0xbe036510	-0.12831521
206	0x3ccf2e0d	0.025290513
207	0xbdcc472a	-0.09974511
208	0xbd97ece4	-0.0741823
209	0xbd8c902a	-0.068634346
210	0xbdef5f96	-0.116881534
211	0xbb435883	-0.0029807396
212	0x3d157846	0.036491655
213	0x3d30f46a	0.04320184
214	0xbda99ff6	-0.08282463
215	0xbd424fca	-0.047439374
216	0x3d6691fc	0.056291565
217	0xbdb01d4b	-0.08599337
218	0x3e2dc0a8	0.16968024
219	0xbd88c414	-0.06678024
220	0x3d83692b	0.064165436
221	0x3e261673	0.16219501
222	0x3e3a4e85	0.18194015
223	0xbdee03d8	-0.11621827
224	0x3da91e6a	0.08257754
225	0x3e14afbb	0.14520161
226	0x3cfc8d95	0.03082923
227	0x3dbe871a	0.09303112
228	0xbb91a349	-0.004444514
229	0x3d9c6197	0.07635801
230	0xbd1cdd03	-0.03829671
231	0xbd91fa22	-0.07127787
232	0x3db72edb	0.08944484
233	0xbe1ac56e	-0.15114376
234	0xbd455ec0	-0.048186064
235	0xbdcbb5e0	-0.09946799
236	0xbd809bd5	-0.062797226
237	0x3d8f1b87	0.06987672
238	0x3ca03757	0.019557638
239	0x3d834e05	0.064113654
240	0xbe2c36d5	-0.16817792
241	0xbdfd5929	-0.123705216
242	0xbd0ff186	-0.035142444
243	0x3e387116	0.18011889
244	0xbd982b83	-0.07430174
245	0x3e2f9d5d	0.17149873
246	0xbb771ae4	-0.0037705237
247	0x3d4a7621	0.049429063
248	0x3d12d0e2	0.035843737
249	0x3e171862	0.14755395
250	0x3d5b3b33	0.053523254
251	0xbdea5d8d	-0.11443625
252	0x3b4dc005	0.003139497
253	0xbdd28f84	-0.1028128
254	0xbd880f14	-0.06643501
255	0x3dc448ea	0.0958422

decoders.1.conv.bn1.bias f4 [4]
0	0x3c1f32ef	0.009716733
1	0x3bd921af	0.00662633
2	0xbb91f94c	-0.0044547673
3	0x3b536385	0.0032255363

decoders.1.conv.bn1.running_mean f4 [4]
0	0xbb1511f6	-0.0022746301
1	0xbc75642e	-0.014977498
2	0x3d36d1ca	0.044633664
3	0xbc9b1229	-0.018929558

decoders.1.conv.bn1.running_var f4 [4]
0	0x3eb94d31	0.36191705
1	0x3eb74ff1	0.35803178
2	0x3eaf480b	0.34234652
3	0x3eb7fed8	0.35936618

decoders.1.conv.bn1.weight f4 [4]
0	0x3f814ab6	1.0100925
1	0x3f7d4d22	0.9894582
2	0x3f7f3f30	0.9970579
3	0x3f7e7c0e	0.9940804

decoders.1.conv.bn2.bias f4 [4]
0	0xbc333d74	-0.010939945
1	0x3c3205f8	0.010865681
2	0xbbb0784b	-0.005385434
3	0xbc327928	-0.010893144

decoders.1.conv.bn2.running_mean f4 [4]
0	0x3ecc0553	0.39847812
1	0x3e2b28f0	0.16714835
2	0x3e4d5c67	0.2005478
3	0x3db753c7	0.08951526

decoders.1.conv.bn2.running_var f4 [4]
0	0x3ed2760f	0.41105697
1	0x3ec7692c	0.38947427
2	0x3ef31edb	0.47484478
3	0x3ec0b1a3	0.37635526

decoders.1.conv.bn2.weight f4 [4]
0	0x3f7d30f4	0.9890282
1	0x3f814436	1.0098941
2	0x3f7e15df	0.9925212
3	0x3f7d3a3a	0.9891697

decoders.1.conv.conv1.bias f4 [4]
0	0xbdc88ec6	-0.09792857
1	0x3ddcb431	0.10776556
2	0xbcb0c89e	-0.021580037
3	0xbd61547d	-0.055012215

decoders.1.conv.conv1.weight f4 [4, 8, 3, 3]
0	0xbda8dc72	-0.082451716
1	0xbdba323c	-0.09091613
2	0x3d89b15d	0.067232825
3	0x3d68cc94	0.056835726
4	0x3cfd38fa	0.030910958
5	0x3dacc134	0.08435288
6	0xbd582e63	-0.052778613
7	0xbd8a4048	-0.06750542
8	0xbc0b5908	-0.008505113
9	0x3d819cb2	0.063287154
10	0xbcbba2d7	-0.022904797
11	0x3cf6f1ea	0.03014465
12	0x3de9676f	0.113966815
13	0x3db695cb	0.089152895
14	0x3d9469c0	0.07246733
15	0xbccd99ca	-0.025097746
16	0xbdeb0c33	-0.11476936
17	0x3c0e883c	0.008699473
18	0x3d8c6d94	0.06856838
19	0x3c885372	0.016641352
20	0xbd2fb95c	-0.04290138
21	0xbcf0ed18	-0.02940993
22	0x3d6ae26a	0.05734483
23	0x3d0d97cb	0.03456859
24	0x3d871858	0.0659644
25	0x3c176259	0.0092397565
26	0xbb7f37cc	-0.003894317
27	0x3d666d48	0.056256562
28	0x3d019de1	0.031644706
29	0x3d736927	0.059426453
30	0xbdd72757	-0.1050555
31	0x3ceddef8	0.029036984
32	0x3de3ecc1	0.111291416
33	0xbdb91893	-0.0903789
34	0x3d8a510f	0.06753742
35	0x3dae44c0	0.08509207
36	0x3db9971e	0.090620264
37	0x3cc12c30	0.02358064
38	0x3d511d57	0.05105337
39	0xbdd95a43	-0.10612919
40	0x3a4941b0	0.00076773297
41	0x3cee82ef	0.029115168
42	0x3d84abf0	0.06478107
43	0x3d2c1233	0.042009544
44	0xbdc31cb2	-0.095269576
45	0xbd64612f	-0.055756744
46	0x3c78fd53	0.015197116
47	0x3daf5790	0.08561623
48	0xbd1dd344	-0.038531557
49	0xbb87f640	-0.0041492283
50	0xbdb870ab	-0.09005865
51	0xbdb686f6	-0.089124605
52	0xbcf13a25	-0.02944667
53	0x3debcaf7	0.11513322
54	0x3d84533a	0.06461187
55	0xbdf45dd7	-0.11931961
56	0x3d376db3	0.04478235
57	0xbd0d53fa	-0.034503914
58	0xbc430b7c	-0.011904594
59	0x3d9b5fbd	0.0758662
60	0x3db9b9ba	0.09068628
61	0xbdd28938	-0.10280079
62	0xbc9b301a	-0.018943835
63	0x3db63535	0.08896867
64	0x3e0172af	0.12641405
65	0xbcf8fd6a	-0.030394275
66	0xbd6d89e6	-0.05799284
67	0x3db78561	0.08960987
68	0x3d740628	0.059576184
69	0xbdc6912c	-0.09695658
70	0x3d5bf2d9	0.053698394
71	0x3d879dde	0.06621908
72	0x3c35f517	0.011105797
73	0xbc9e98fa	-0.019360054
74	0x3bc91189	0.0061361236
75	0x3c1ef6ee	0.009702427
76	0xbdbd25b6	-0.092357084
77	0x3b849d77	0.0040470916
78	0x3dfa8fb8	0.122344434
79	0xbdba85d2	-0.091075554
80	0x3db0c307	0.086309485
81	0x3d998bbc	0.07497355
82	0x3cb67820	0.022274077
83	0xbd635b57	-0.05550703
84	0x3ae5dd78	0.0017537316
85	0xbb813ac9	-0.0039437753
86	0x3dd50912	0.10402121
87	0x3c45c522	0.012070926
88	0x3d45e586	0.048314594
89	0x3dea279d	0.11433337
90	0x3cd3fe04	0.02587796
91	0x3c40f16f	0.011776312
92	0xbdabd814	-0.08390823
93	0x3c631e55	0.013862212
94	0xbbe25afa	-0.006907818
95	0x3ba68aed	0.005082479
96	0xbd41ed8f	-0.047345694
97	0x3dcc1ec1	0.09966803
98	0xbd97c384	-0.074103385
99	0xbdc47136	-0.09591906
100	0xbd561e44	-0.052274957
101	0x3d0144e7	0.03155985
102	0x3d5a2a8c	0.053263232
103	0xbd4115a7	-0.04713979
104	0x3b6fc156	0.0036583743
105	0xbd760d70	-0.06007141
106	0x3d093119	0.03349409
107	0x3d8eb952	0.06968941
108	0xbd62ee27	-0.0554029
109	0xbdadeff5	-0.08493034
110	0xbc100a03	-0.0087914495
111	0x3d9bdbf6	0.076103136
112	0x3ca44eee	0.020057168
113	0x3d615794	0.05501516
114	0x3b6adfd8	0.0035838988
115	0xbd5455d6	-0.051839672
116	0xbd9cadbb	-0.07650324
117	0x3d769831	0.060203735
118	0xbda9218c	-0.08258352
119	0x3ddb5e93	0.10711398
120	0xbd48d41e	-0.049030416
121	0xbdec8f4d	-0.1155077
122	0xbda9bc2f	-0.08287846
123	0x3d08fb34	0.03344269
124	0x3c896723	0.016772812
125	0xbd9d4170	-0.07678497
126	0x3dbb1083	0.09134009
127	0xbd634061	-0.05548132
128	0x3ddb5d14	0.107111126
129	0xbc774055	-0.015091022
130	0x3be33510	0.006933816
131	0xbd0a10f9	-0.033707593
132	0xbd198979	-0.03748462
133	0xbdb1941c	-0.08670828
134	0xbd5fbbdd	-0.05462252
135	0xbdd37a3d	-0.103260495
136	0x3ddb1e43	0.10699131
137	0x3d8ca406	0.068672225
138	0xbdf55b7b	-0.11980339
139	0xbdba699d	-0.091021754
140	0x3d775e03	0.06039239
141	0xbc66ab22	-0.014078887
142	0x3cca3bf8	0.024686798
143	0x3df98843	0.12184193
144	0xbdc768d9	-0.09736795
145	0x3d7f2b4d	0.062297154
146	0x3d03c634	0.032171443
147	0x3d19a2a8	0.037508637
148	0x3d3910c9	0.045182023
149	0xbd59aa08	-0.05314067
150	0xbcbc7b34	-0.023007967
151	0x3dab58d4	0.08366552
152	0xbd80f6aa	-0.062970474
153	0xbc89b84c	-0.016811512
154	0x3d8ece65	0.069729604
155	0xbdccd00c	-0.10000619
156	0xbc330220	-0.0109258
157	0x3de98d9f	0.11403965
158	0xbc80b2bf	-0.015710233
159	0xbd0c70ed	-0.034287382
160	0x3d0e2392	0.03470189
161	0xbde3b15d	-0.11117814
162	0x3dba827d	0.0910692
163	0x3d8fd42f	0.07022893
164	0xbd1f220c	-0.03885083
165	0xbd396327	-0.045260575
166	0x3d7ce1c7	0.061738756
167	0x3bf7264e	0.007542408
168	0x3c448595	0.011994739
169	0xbcde6bad	-0.027150953
170	0xbd5d6175	-0.05404802
171	0xbdc2ce5e	-0.09512018
172	0xbd3f439e	-0.046695344
173	0xbdb755e9	-0.08951933
174	0xbdae6a38	-0.08516353
175	0xbd611013	-0.05494697
176	0x3d45a6c6	0.04825475
177	0xbda714b4	-0.08158246
178	0x3d57f656	0.05272516
179	0x3d104b18	0.035227865
180	0x3a52a734	0.00080357795
181	0xbd1d37e4	-0.03838338
182	0xbdf5c527	-0.120004945
183	0xbd6313fc	-0.05543898
184	0x3dcb792e	0.099352226
185	0xbdf46a3e	-0.119343266
186	0xbdb86acc	-0.09004745
187	0x3daeb302	0.08530237
188	0xbd66db93	-0.056361746
189	0xbcae2a7d	-0.021260494
190	0x3d1e6305	0.03866865
191	0xbddfa088	-0.10919291
192	0x3c33dc30	0.01097779
193	0x3df5638a	0.11981876
194	0xbd2571f8	-0.040391892
195	0xba3cfd95	-0.00072094175
196	0x3d2e7cc4	0.042599455
197	0x3cbe84d0	0.02325669
198	0x3d0fee35	0.03513928
199	0xbd84d542	-0.06485988
200	0x3ca2aba6	0.019857239
201	0x3d96b9ac	0.07359633
202	0x3d59d406	0.053180717
203	0x3d9f4e43	0.07778599
204	0xbdcf16e5	-0.10111789
205	0x3d7798cb	0.06044845
206	0x3d220e78	0.03956458
207	0x3dc9cd67	0.098536305
208	0xbc2ac1af	-0.010422154
209	0xbc627d28	-0.013823785
210	0x3d26bda8	0.040708214
211	0x3dd247d1	0.10267604
212	0xbdf6a8bd	-0.12043903
213	0xbd0ed1a8	-0.034867913
214	0x3c9703e4	0.018434472
215	0x3d044389	0.03229097
216	0xbdfe7296	-0.12424199
217	0x3db6ef8a	0.08932407
218	0xbcf116bc	-0.029429786
219	0xbce99582	-0.028513674
220	0x3c25f4dc	0.01012918
221	0xbd805175	-0.06265537
222	0x3b95ca76	0.0045712544
223	0x3de9e9e3	0.114215635
224	0xbdd7e873	-0.10542383
225	0x3ddf7d90	0.10912621
226	0x3d83c0b0	0.064332366
227	0xbd9765e8	-0.07392484
228	0x3d7085f6	0.058721505
229	0xbd8f92cd	-0.07010422
230	0x3de1ae35	0.110195555
231	0x3dac4b90	0.0841285
232	0xbd008daa	-0.0313851
233	0x3c72199b	0.014776613
234	0xbc3545fe	-0.011064051
235	0xbdb92234	-0.09039727
236	0xbdd6015e	-0.104494795
237	0x3de1276f	0.109938495
238	0x3df2054e	0.11817418
239	0xbd0e5763	-0.034751307
240	0xbd825510	-0.06363881
241	0x3d74ffba	0.059814192
242	0x3d685df5	0.05673023
243	0xbdd17d65	-0.10228995
244	0xbd85cb3f	-0.06532907
245	0x3dd45dd4	0.10369459
246	0xbcc2074a	-0.023685116
247	0xbd51e77c	-0.05124615
248	0xbc2d8945	-0.01059181
249	0xbd9cc81d	-0.07655356
250	0x3b812253	0.0039408593
251	0xbda0b385	-0.07846741
252	0x3c698990	0.014253989
253	0xbd7ccc5c	-0.06171833
254	0xbd78773e	-0.060660593
255	0xbd83937a	-0.06424613

decoders.1.conv.conv2.bias f4 [4]
0	0x3e21da94	0.15806037
1	0x3ce1cbee	0.027563062
2	0x3d99b3a3	0.07504966
3	0xbd043c56	-0.032284103
